mnist_model.pth (torch, 87352 bytes, 16 tensors)

conv1.weight f4 [8, 1, 3, 3]
00000000: 96c1 813e f594 453e fb32 f0bd 4899 0b3e
00000010: c1ac 07bd 0d71 b7bc 53fa 84be 2fd1 cf3d
00000020: 2a2c 853e f47b 83be ea88 593e 0d08 133e
00000030: dd2d 383d dfb8 a1bd 148b 263e e951 fbbd
00000040: dcd8 fd3d 1024 1d3e d429 febc f713 1c3e
00000050: 76ca 213d a489 b5bd 046c c3bc 8b55 583e
00000060: bf0f 11be 19fb 21be 4817 3abe 3115 07be
00000070: 0971 6fbd 9fc3 89be 87ea 7c3e e425 8ebe
00000080: 7e20 2d3e 98bc 753c d57f 16be 4a96 433e
00000090: 9aba cb3b 7e98 663e eaee 413d d573 89bd
000000a0: 2ae1 203e 6e12 c6bd 8671 fb3d 97c1 933e
000000b0: 5d80 d13d 2eaa 10bd d040 1c3e 20e9 77bd
000000c0: 2a4e 493e e60f e8bd 4942 84be f02b 05be
000000d0: ee11 57be aa0d 893e b0f3 a63d 70ff 863d
000000e0: 2684 643e f9f3 dc3d 4faa 193e f190 14be
000000f0: b62c b0bd 3289 54be 435a aebd e035 0abe
00000100: f4e4 04bd 6330 e8bd 7a78 5a3e 0a95 1ebe
00000110: ccb3 36be e833 0bbd 1236 913e b36f f53d
0.25343007 0.19295104 -0.11728474 0.13632691 -0.033123735 -0.022392774 -0.25972232 0.101473205
0.26010257 -0.25680506 0.21243635 0.1435854 0.044965614 -0.078965895 0.16263992 -0.122714825
0.12394878 0.15345788 -0.031025805 0.15241991 0.039499722 -0.088641435 -0.023855217 0.21126382
-0.14166163 -0.15818442 -0.18172944 -0.13191678 -0.058457408 -0.2690706 0.2469884 -0.27763283
0.16906926 0.014998578 -0.14697202 0.191003 0.006217313 0.22519109 0.047346987 -0.06711546
0.15710893 -0.09671484 0.12277512 0.28858635 0.102295615 -0.035318546 0.15259099 -0.06052506
0.19658723 -0.113311574 -0.25831822 -0.13005042 -0.21002933 0.26768237 0.081519485 0.065916896
0.22316036 0.107887216 0.15006374 -0.14508416 -0.08602278 -0.20755461 -0.0851331 -0.13497114
-0.03244491 -0.11337354 0.2133502 -0.15486541 -0.17842025 -0.03398505 0.28361565 0.119841956

conv1.bias f4 [8]
00000000: 9ebf 813c f92b a63b 935c f33d ff28 433a
00000010: 6e37 d7bb c7fa 34bd 0613 23bd 18e9 75bb
0.01583844 0.00507116 0.118828915 0.00074447686 -0.006567887 -0.044184472 -0.039813064 -0.0037522968

bn1.weight f4 [8]
00000000: 6972 6f3f c5bd 6c3f 84ec 973f a59f 843f
00000010: 0355 723f ebba 903f e53f 803f b235 763f
0.9353395 0.92477065 1.1869054 1.036122 0.9466097 1.1307043 1.0019499 0.9617568

bn1.bias f4 [8]
00000000: 5c6b 2ebe 6196 b0bd 5c17 c6bd 6af7 44bc
00000010: b961 b2bc 482c 0dbe 9e86 16be 0ad5 fbbd
-0.17033142 -0.086224325 -0.09672424 -0.012021879 -0.021775113 -0.13786423 -0.1469979 -0.12296493

bn1.running_mean f4 [8]
00000000: 8ac2 db3c 304e 3b3c 0779 e73d 1512 58ba
00000010: 7976 103c d55f 36bd ebf4 18bd 8edc 9ebb
0.026826162 0.011432216 0.11302381 -0.00082424405 0.008817309 -0.044524986 -0.037342947 -0.0048480695

bn1.running_var f4 [8]
00000000: 5a2a 563e c62d 613e 1255 e73d 5545 093e
00000010: 576d ec3e de9b af3d 1161 013e 2686 ae3d
0.20914593 0.21990117 0.11295523 0.13405354 0.4617717 0.08574651 0.12634684 0.085216805

conv2.weight f4 [16, 8, 3, 3]
00000000: f281 213e c530 85bd 1732 eabd d742 afbd
00000010: 897e a0bd f701 333d 1e4d 5a3c 1f17 9f3d
00000020: e8aa fdbd 3053 0dbd 7f42 2d3e ce4b 6dbd
00000030: 0316 fc3d 7c4c 0f3d d1fc 03bc 15d8 06be
00000040: 5838 e6bd fdac 98bd 9b66 733d 0fdd 213d
00000050: cc06 a13d 40de 693e 6dfd c43d b3f4 46be
00000060: b474 9f3e b335 46bd 3253 2abe 889c 27bd
00000070: 8894 43bd c8f6 8b3d f309 e6bd f909 50bb
00000080: 50df a1bd 10e7 11bd 2290 ddbd 3cff 08be
00000090: 687c cfbd 7781 19bd ede3 613e 2d87 903d
000000a0: 4b91 cd3d efe4 28be 76f4 dfbd f39f cfbd
000000b0: 61bd a0bd b94c 3abe 9f3e e8bd 0bed 193c
000000c0: e949 77bd 51cb e13c 8ff6 cd3d 77a7 c2bc
000000d0: b7b5 4b3e 0f35 d33d 57f1 dabc 10ae b7bc
000000e0: 20eb 383e ff55 dfbb 7829 3c3e bd22 b43d
000000f0: 7edc a5bd f6a1 6a3e 0272 bebd 3301 87bd
00000100: 81ee 3ebe eaeb b1bd e495 2fbc b63b 9cbc
00000110: b1c4 acbd 5fee a6bc 19da 58bd f53a 20be
00000120: cd17 d4bc 1955 263e d34b d43d 936f 2a3e
00000130: 926e 813e 0f2b 6fbd 2b1f 5a3d efa3 d5bc
00000140: 0ad0 8dbb bd93 2abd b612 cd3d df28 2dbe
00000150: 8791 eb3d fb89 5a3d 40c3 443d 9ac8 87bd
00000160: fe3d 103e de14 db3a 0c4f 40bc 4cbd 22be
00000170: f7cb 173d 14a5 09be 0b0c 34be 4e56 983d
00000180: fe19 f83d a3d9 acbb 231e 173d c802 ebbd
00000190: d5ab 5dbd 0ba0 4cbd 36ad 30be 0190 71be
000001a0: 3794 19be be7d 74bb d332 c939 615a 61be
000001b0: b265 9a3d ea3c d73d 9af7 253c 09f3 11bd
000001c0: e127 ef3d c568 2a3e 2d55 cc3c decd e2bb
000001d0: 7bc4 82bd 6f13 b83b 9cb8 c3bd 91c6 1cbe
000001e0: 08ed 313e d50a 883c 17b9 06be 161e af3c
000001f0: 2633 973d 8ecd c43c 787c 523d 657c 363d
00000200: 477a 6dbe 36e7 80bc 0f0a c33d 1447 e2bb
00000210: b14e 1b3d e2a8 96bc 3afc febc d5bd 36be
00000220: 308b f6bd 745f c03c b62e 98bb 23a1 88bd
00000230: 118e dbbd 2ff1 6dbd 1735 f5bd bc4f 703c
00000240: 4e94 5d3d 42de 1bbd 6efb e73d 569b e3bc
00000250: 4aa7 babd 1588 d13d be05 23be 3dab f83b
00000260: b98d 24be 996b fc3d cce8 fe3d dca0 0b3d
00000270: 215c 0abe 0835 2bbe 2f85 1fbe 854c b43d
00000280: ad07 f83d 5b95 163e 17fa 363e dcf6 c23d
00000290: 675e 443d 2f1e 973d 997f e6bd 6c57 7ebe
000002a0: 0ee4 133e 60c1 2dbd 79fa e1bc 164c e2bd
000002b0: 635a bdbd 106d 08be 96df 03bc 5cf6 b93d
000002c0: 06a4 d7bd 811e 0c3e b224 6bbd 6164 debd
000002d0: 0095 a7bc 02b9 9fbd 2177 19bd 6e55 30be
000002e0: e1cd b03d 3337 0ebe 2985 8a3c dac0 973d
000002f0: d46a 073e 7634 b7bd 536b 9b3d 60dd e1bc
00000300: cddf f53d 296a 883e 8b1d aabd 7895 c13d
00000310: 18cc 473d db90 38be fab9 073e f285 9ebd
00000320: 284d 143e 52a4 3a3e 6aa1 4b3e ce95 b4bd
00000330: 1a10 b9bd 1ddb 0c3d 693b 863c 0918 1fbd
00000340: 1827 c5bc 8a8d 1ebe aa25 a03d f641 23bd
00000350: 0821 a4bd 89d2 0fbe 2cb4 1ebe 7639 623d
00000360: d738 633c e92d 32bd f348 e03a b32a dcbd
00000370: 4164 29be 2ae0 3ebe 845b a63c 60b7 d636
00000380: 6573 89bc 7551 acbd 556a 88bd e717 d5bd
00000390: c055 28bc 1324 fcbc d5dd 1ebe ebc3 97bc
000003a0: 0500 f0bc 940f 283e 693f 903d 2bf0 5c3e
000003b0: 8748 d43d 9cae 2fbd 612a 473d a1f2 b63d
000003c0: 3bd1 24be 31b4 b53d b875 0f3e c517 d1bc
000003d0: 3c53 abbd 9988 fabd 6306 d23d 1d00 c33d
000003e0: bf6b 9bbd 801a 00bb ce06 383e cdb8 8e3d
000003f0: 5433 0cbe 9136 0ebe 9627 d6bd 184f 27be
0.15772226 -0.06503443 -0.11435335 -0.085576706 -0.07836635 0.043703046 0.01332405 0.07768082
-0.123861134 -0.034503162 0.16919897 -0.05793362 0.12308886 0.03498505 -0.008055882 -0.13168366
-0.112412155 -0.0745487 0.059424024 0.03951746 0.078626245 0.22838688 0.0961865 -0.19429283
0.31143725 -0.048391055 -0.16633299 -0.040920764 -0.047749072 0.06834179 -0.112323664 -0.0031744225
-0.079039216 -0.03562075 -0.10818507 -0.13378614 -0.101311505 -0.037476983 0.22059603 0.07057033
0.10037478 -0.16493581 -0.10935299 -0.1013793 -0.07848621 -0.1819333 -0.11340069 0.009394894
-0.06037322 0.02756277 0.10056793 -0.023761494 0.19893537 0.103128545 -0.026726408 -0.022421867
0.18058443 -0.0068156715 0.18375194 0.08795688 -0.08098696 0.22913346 -0.09299089 -0.065920256
-0.1864567 -0.08687575 -0.010716889 -0.019071441 -0.084359534 -0.020377336 -0.05294237 -0.1564749
-0.025890255 0.162434 0.10366025 0.16644125 0.2527967 -0.058390673 0.05325238 -0.026079146
-0.0043277787 -0.0416448 0.100133345 -0.16910122 0.115023665 0.053354245 0.048037767 -0.066300586
0.14086148 0.0016714593 -0.011737596 -0.15892524 0.03705975 -0.13441879 -0.17582719 0.07438336
0.121143326 -0.0052749678 0.036893975 -0.1147514 -0.05411895 -0.049957316 -0.17253575 -0.2359009
-0.14997946 -0.0037306393 0.00038375575 -0.22007133 0.07538928 0.10509665 0.010129834 -0.035632167
0.11677528 0.16641529 0.024942959 -0.006921514 -0.06385132 0.005617551 -0.09556696 -0.15310122
0.17375576 0.016606728 -0.13156544 0.02137665 0.07382803 0.024023797 0.051388234 0.044552226
-0.23191176 -0.01573525 0.09523403 -0.006905446 0.037916843 -0.018391076 -0.03112613 -0.17845853
-0.12038267 0.023483016 -0.0046442403 -0.066713594 -0.107204564 -0.05809134 -0.11973017 0.014667448
0.054096512 -0.03805376 0.11327253 -0.02778403 -0.09113939 0.10231034 -0.15920159 0.0075887726
-0.16069688 0.1232521 0.12446746 0.034088954 -0.13511707 -0.16719449 -0.1557815 0.088036574
0.12110839 0.14705412 0.17868839 0.09519741 0.04794159 0.07378804 -0.11254806 -0.24838036
0.14442465 -0.042420745 -0.027585255 -0.110496685 -0.092457555 -0.13322854 -0.0080489125 0.090801924
-0.10529332 0.13683511 -0.057408042 -0.108589895 -0.02045679 -0.07798959 -0.037467126 -0.17220089
0.08633018 -0.13888244 0.016909199 0.074098304 0.13224345 -0.08945553 0.0758883 -0.02757138
0.12005577 0.26643494 -0.08306416 0.09452337 0.048778623 -0.18024008 0.13254538 -0.07740392
0.14482558 0.18226746 0.19885793 -0.088176355 -0.09036274 0.03438865 0.01638575 -0.03884128
-0.024066493 -0.1548368 0.07819684 -0.039857827 -0.08014113 -0.14045157 -0.15498418 0.05523058
0.013868532 -0.043500815 0.0017111584 -0.10750332 -0.1654215 -0.186402 0.02030731 6.3990447e-06
-0.016778657 -0.08413974 -0.06660906 -0.1040495 -0.010274351 -0.03077892 -0.1551431 -0.018526038
-0.029296884 0.16412193 0.070433445 0.21575992 0.10365396 -0.04289113 0.0486244 0.089329965
-0.1609544 0.088722594 0.1400975 -0.02552403 -0.08365485 -0.12233085 0.102551244 0.09521506
-0.0758891 -0.0019547045 0.17971346 0.06968842 -0.13691455 -0.13888003 -0.10456769 -0.16338766

conv2.bias f4 [16]
00000000: 659d c2bd 3521 c23c 53bd 24bd b85e 0bbd
00000010: a70f 19bc ae81 96bb 95d5 9d3d fab1 d43d
00000020: 34d4 873d 56a7 1a3d 774f 97bd dfbc 3cbd
00000030: 44b3 0f3d c5cb 063e cf64 a43c ebf1 023d
-0.09502677 0.023697475 -0.040219616 -0.034025878 -0.009342111 -0.0045930957 0.07706753 0.10385509
0.066322714 0.03775724 -0.073882036 -0.04607856 0.03508307 0.1316367 0.0200676 0.031968992

bn2.weight f4 [16]
00000000: 2c86 903f 4dd3 8d3f 66b8 903f 1378 af3f
00000010: 5212 a43f 88c0 903f fc62 943f 5b82 8d3f
00000020: b115 8c3f bf03 9d3f fea3 903f 85fc 8a3f
00000030: d253 9b3f 85a0 923f edbf 9b3f da8d 9b3f
1.1290946 1.1080109 1.1306274 1.3708519 1.2818091 1.1308756 1.1592708 1.1055406
1.094412 1.2266768 1.1300046 1.0858313 1.2134955 1.1455237 1.2167946 1.2152665

bn2.bias f4 [16]
00000000: 443e 253d 6185 a8bd 3788 babd 6f0d 34bc
00000010: 6104 523d e732 2bbe f7bd e2bd 82b9 79bd
00000020: 038f aabd 63fa 943b a435 973c 690c 52bd
00000030: b775 ac3c 74d9 3f3d 1774 09be a0a5 303d
0.040342584 -0.08228565 -0.09108012 -0.010989531 0.051273707 -0.16718636 -0.11071389 -0.06096793
-0.083280586 0.00454645 0.018458195 -0.051281366 0.021052225 0.04683824 -0.13423191 0.043126702

bn2.running_mean f4 [16]
00000000: 8fee cdbe 4eb0 5dbe 50d5 1fbe 77be 37be
00000010: 0667 903e 03d6 8ebe 5995 1b3d eebe 01be
00000020: 81be 853e 1a4d 0c3e 5c82 303e 3dba 133e
00000030: 6534 0c3d d52b 983e 05fe 6ebd 2293 023f
-0.40221068 -0.21649286 -0.15608716 -0.1794375 0.282036 -0.27897653 0.037984226 -0.1267049
0.26121905 0.13701287 0.17237228 0.14426513 0.034229655 0.2972094 -0.05834772 0.51005757

bn2.running_var f4 [16]
00000000: c4f6 623f 01d8 1a3f 9c54 103f 9734 743f
00000010: 11e1 413f 200e 183f 5f5c 803f 82d9 e73e
00000020: ad0c ee3e 46dd 203f a51b 233f 742e a63e
00000030: a445 fc3e 0dc3 dd3e adda 4c3f 64f4 a53f
0.88657784 0.60485846 0.56379104 0.95392746 0.7573405 0.59396553 1.002819 0.45283133
0.46494046 0.62837636 0.6371406 0.32457316 0.49271882 0.43312874 0.8002117 1.2965207

fc1.weight f4 [24, 784]
00000000: 8214 a33d e2e7 bbbc 0c8b fa3d 65d9 ec3d
00000010: 0d61 8d3d 96ff 0bbc da4b a63d 5d1e 6e3d
00000020: 0fb5 9f3d c004 e33d 8953 133e dcb8 833b
00000030: 8ef3 53bc 2d1b 973d f931 503d e06a 213e
00000040: 09b9 de3d 925b 5f3c 3d26 26bc f8b7 7ebc
00000050: 1f87 f43d fc7f 5c3d 805c 933d 7272 a93e
00000060: 2733 b93d 01d8 823d 9ca1 23bc 88d4 03bd
00000070: bcca ce3c 0b67 143e 95a1 de3d cd6a 6d3e
00000080: 6c48 943c 9804 c93d ac65 583d 9b5b 62bd
00000090: b290 bb3d ca23 1f3e dd03 75bc 5d09 f43b
000000a0: cfa3 a33d 3f47 e83d 36d3 18bc 1d7e d03d
000000b0: a422 903d ab64 ccbb be88 903b ff24 393d
000000c0: 7e9b 023c 4039 873d ca65 92bd d5a2 933c
000000d0: 68d0 843d 77fa 833d e02e a93c 2b29 5c3d
000000e0: 0b0b 61bc ce86 74bd b632 d0bd 14c9 3fbd
000000f0: d1bd ebbd 5248 833c 7cc0 b13c 7ceb d4bb
00000100: 9a36 7c3d 033a d13d 1491 d73d 8271 723d
00000110: e703 973d 518a 7abd abc2 883d 013c 803d
00000120: b604 8fbd e336 16bd e626 9e3d aedd 953d
00000130: cd43 37be 6a66 103d eec3 a6ba df27 483c
00000140: 49c9 9dbd d5b0 c13d 1492 6f3d a678 f0bd
00000150: a1f6 293d dfad bebc 37e4 333c 7585 023e
00000160: 57d8 c3bb 9a85 53bd 4e93 15bb d26d 693c
00000170: f42b 6abd c126 4b3d 3d0b bdbc 1b54 823b
00000180: 8714 cdbd 46f6 5dbd 9c34 a03d 5f0d 3cbb
00000190: e9ce 2fbd 65c4 44bd a759 983d bc81 2f3d
000001a0: bea9 1bbd 1e6f b33d 5d1b 66bd f782 a73d
000001b0: 7d9c 153e be08 d33d 2a54 aabd f045 923d
000001c0: d93a 913d b72e f23d 8f2e 503e 5aa6 f33d
000001d0: 0c5a 12bc 33ee 06be 181e 4e3d 8418 0f3e
000001e0: 798e c13d 27d0 313d 3b3f e73c 9286 9f3d
000001f0: 9853 e8bd 82a3 eebc 1f77 33ba d57c 6ebc
00000200: 912f d63d e9af 923d 7a7c d33d 3a89 88bc
00000210: 5e9d 94bd 5fc1 4e3d 3549 cf3d 5022 aa3d
00000220: 0b0d b8bc 8305 813d 7b8b 32bd 2529 d33c
00000230: 8e5d 8c3d 3e85 90bd 6378 60bd 929c 80bd
00000240: 7541 8e3d be51 433d 777d 8f3c 9c74 e43d
00000250: 6476 e8bc 663c 87bd 9798 423d 7b52 523d
00000260: 0d0f 9e3d a64e b13b fc27 043e ec95 f43d
00000270: 22b2 ec3d 4706 0dbd 5658 a03d 1e88 bfbd
00000280: 2421 d73d ddb2 8e3d 9495 ac3d bfe6 f23d
00000290: 55a9 f93d 0f88 b1bd bac8 823c 1be8 f13c
000002a0: 4a68 cb3d 7ec3 573d 182d 503e 8ddb e73a
000002b0: 7eef 13bd 2d4c e03d c2ae 1ebb 3b9f 10bd
000002c0: a6f6 2a3e 3b3e 733e 52a6 283e fc29 463d
000002d0: 1cef b33d 5ab2 a43b 6f45 2c3d 058f 3d3e
000002e0: df41 5f3e ca30 c63d 420c 233d 5c43 063d
000002f0: 1e32 cd3c bef3 0dbc bb10 cdbc 3419 3fbd
00000300: 1fe6 6abd 92ec 893d e676 693d c07f 9d3d
00000310: 6d30 a13c 80ef 023d 8668 f63c 05d4 abbc
00000320: 9d37 883d 804f a8bd 8a10 74bd 6786 693c
00000330: 7e87 6f3d 3a66 8c3d 0bbc d73d 85e3 1e3d
00000340: b54c 453d ebc8 863d 147b fabc 8de8 323e
00000350: 95ce dc3d c1af 883d c049 ccbd 248b 8cbd
00000360: b9d7 7cbd 0658 463d 44c1 43bb 99a2 14bd
00000370: cfbe 283b f7a1 b0bd 01b0 f03d 5dfe 1d3d
00000380: 1704 9ebd 4d89 713d d6da 0f3e 96c6 2ebd
00000390: 2ed5 8fbc 3b15 a83d 57c5 ec3b 06aa c5bd
000003a0: f32b 683d 4613 063c e801 0fbd 9fad 5fbc
000003b0: 313b f73c 24a5 e13d 8ef9 173c 08ef 3abd
000003c0: ffe4 98bd 4d30 6fbd 41a8 6a3d d9d6 54bb
000003d0: 7931 a53d 0583 eb3d f622 a0bd 60ea ccbd
000003e0: 643d fbbc e040 0c3d 59b1 adbc 8159 5bbd
000003f0: 8d39 d43d 2bc7 62bc 3349 debd 0bf3 61bd
0.07962896 -0.022937719 0.12233552 0.11564902 0.069032766 -0.008544823 0.08119936 0.058134425
0.07798206 0.1108489 0.14387335 0.0040198397 -0.012936486 0.0737823 0.050828908 0.15763426
0.108751364 0.013632672 -0.010140953 -0.015546791 0.11939835 0.053832993 0.07195377 0.33095127
0.0904296 0.06388856 -0.009987261 -0.032185107 0.025243156 0.14492433 0.10870663 0.23185273
0.01810094 0.09815329 0.052831337 -0.055263143 0.09158458 0.15540996 -0.014954534 0.0074474053
0.079902284 0.11341714 -0.0093277 0.10180304 0.07037857 -0.0062375865 0.004410832 0.045201298
0.007971643 0.066027164 -0.07148321 0.01802198 0.06485063 0.06444257 0.020652235 0.0537502
-0.013735543 -0.059698872 -0.10165922 -0.046822622 -0.11510814 0.016025696 0.021698229 -0.0064977985
0.06157551 0.10216143 0.10525718 0.05919028 0.07373791 -0.061167065 0.06677755 0.06261445
-0.069833204 -0.036673438 0.07722263 0.07317673 -0.17896958 0.03525392 -0.0012723187 0.012216537
-0.07704408 0.09457556 0.05848892 -0.11741762 0.04149497 -0.023276268 0.010979704 0.12746222
-0.0059767175 -0.051641084 -0.0022823396 0.014247375 -0.057170823 0.049597505 -0.023076648 0.0039773113
-0.10013681 -0.054189943 0.078225344 -0.0028694493 -0.042921934 -0.04803886 0.07438975 0.042848334
-0.038003676 0.08761428 -0.05617844 0.081792764 0.14610477 0.10304402 -0.08316834 0.07142246
0.070913024 0.118253164 0.2033026 0.118969634 -0.008932602 -0.13176803 0.05032167 0.13974196
0.09451003 0.0434114 0.028228393 0.07789339 -0.11344069 -0.029130701 -0.00068460585 -0.014556129
0.10458291 0.071624584 0.103264764 -0.016666997 -0.07256578 0.05047738 0.10121385 0.08307326
-0.022467157 0.062998794 -0.04359005 0.025776455 0.06853782 -0.07056664 -0.05480231 -0.062798634
0.06946079 0.047685377 0.017515881 0.11155054 -0.028376766 -0.06603317 0.047508802 0.05134819
0.077177145 0.005410987 0.12905878 0.11942658 0.11557414 -0.034429815 0.07829349 -0.09352134
0.10504368 0.06967709 0.08426967 0.118604176 0.12190501 -0.08668529 0.015964855 0.029529622
0.09932001 0.05267667 0.20329702 0.0017689333 -0.03611707 0.109520294 -0.002421305 -0.035308104
0.16695651 0.23754208 0.16469696 0.048379883 0.08785841 0.005026144 0.042058405 0.18511589
0.21802472 0.096772745 0.03980661 0.032779083 0.025048312 -0.00866407 -0.025032392 -0.046654895
-0.057348367 0.06734575 0.056998156 0.07690382 0.019676412 0.031966686 0.030079138 -0.020975122
0.066512324 -0.082182884 -0.059586085 0.014253235 0.058478825 0.06855436 0.10533913 0.0387912
0.048168857 0.06581291 -0.030576266 0.17471524 0.1078159 0.066741474 -0.09975004 -0.068624765
-0.061729167 0.04842379 -0.0029869834 -0.036287878 0.0025748496 -0.08624642 0.1175232 0.038572658
-0.07715624 0.05896883 0.14048323 -0.042669855 -0.017557707 0.082071744 0.007225673 -0.0965157
0.05668254 0.008183306 -0.034913927 -0.013652234 0.030179592 0.11017826 0.009275807 -0.045638114
-0.074655525 -0.058395673 0.057289366 -0.0032476692 0.08066077 0.11499599 -0.07819168 -0.10005641
-0.030668922 0.034241557 -0.02120273 -0.053552154 0.103625394 -0.013841431 -0.108538054 -0.055163424

fc1.bias f4 [24]
00000000: ba02 0c3d be89 2cbc 4727 53bc 6cf3 123d
00000010: 72e5 39bc a02c 113d d025 cf3a c2d5 e9bb
00000020: 5c19 2e3d 5aef a33c 02ad d9ba 7536 c6bb
00000030: 82c2 263c d70c 093d cc32 2bbc 4366 5fbc
00000040: 1ced 14bd 2ae4 453c 3760 3dbc b549 1abc
00000050: c9f9 053d 9559 8c3c a1c9 c4bb bc2c c5bb
0.034182288 -0.010530887 -0.012887782 0.035876676 -0.011346208 0.03544295 0.0015804116 -0.0071360776
0.042504653 0.020011593 -0.0016607346 -0.0060489723 0.01017821 0.03345951 -0.010449123 -0.013635221
-0.036358938 0.012078324 -0.011558584 -0.009416987 0.032708917 0.01713256 -0.0060054814 -0.0060172956

fc2.weight f4 [10, 24]
00000000: d928 1dbe 7875 623e 5116 20be dc32 883e
00000010: a067 763e 7844 cb3c d76b f9be e917 c0be
00000020: 3970 9ebd 28fe 5a3e 118d d23e 57c7 7a3e
00000030: 20c4 c63d 7df7 c6bd 7626 8a3c e22e 08be
00000040: c107 06be 2d89 9b3e 7735 d1be 49be 85be
00000050: 60fe 7fbe d46f afbe 5a53 9dbe dd4d 4d3e
00000060: 2d18 7e3e b16c 703e be81 98be c89a b43d
00000070: 3bf3 5d3e 8e7e c43d 713c 87be 4db6 a5be
00000080: dbc2 9a3e 8aa2 9c3c ffe2 843d 4563 a7be
00000090: bb46 f8be 8676 d73e 921b cabd 686a ae3e
000000a0: 4510 0bbf f6ce b4be 8ba0 bdbe 64c5 c23e
000000b0: 6336 3d3e 1255 3d3e a565 a13e cb37 993c
000000c0: c77b f03d 5b16 56be ac84 4e3d d164 a63e
000000d0: 3a45 4dbd 6444 a4be 67e7 91be e6ef cf3c
000000e0: 7c1e 843e 54f1 aebb 9eb1 5fbe 2f80 f03c
000000f0: 8751 ddbd 8972 29bd 93d0 9c3e 03a8 b5be
00000100: 23e6 0cbe 7303 50be 9427 c83e 35ac b4be
00000110: 19b1 02be 0392 04bf 66b0 9bbe 89e9 31be
00000120: 0834 2c3e 79a6 a9be 4a5b 34bd 0a71 9abe
00000130: 9589 9b3e bd00 bfbe 5733 08bf 6d4c 77bd
00000140: a504 a2be 6a28 adbe 9b21 db3c 0f4f b1be
00000150: 29db 86be ade0 b03e 913c a03e ee96 993e
00000160: dada b73e 204c c03e 1b19 c53d 5478 42be
00000170: 9c3d 01be b815 3a3d 3927 193d 28bc 8abe
00000180: 17db ad3e e7ea 5dbe 7dec 9c3e 76a5 b6ba
00000190: 405e 2d3e b96f 6f3d 1525 9b3e 49d5 8cbe
000001a0: 300a 283e bd4d 7bbe 885a 1f3e e164 3dbe
000001b0: d143 9f3d a7d1 9cbe 387b 98be 296e a33e
000001c0: b74f b53e fc03 f8be 6bd2 c4be aedf c0be
000001d0: 9be9 963d 3043 2ebe 97fb 2cbc ef99 023e
000001e0: 835f 033d c440 b9bd 93d3 5f3d a1f8 b1be
000001f0: 6d3a a43e 42da c6be 26c7 f3be 8336 c8bd
00000200: af77 97be 4eca 023e c068 913e b616 19be
00000210: a4ad 9bbd 9c6b a3be 623d 2c3e 434e a1be
00000220: ea44 a43e a508 a53d 07f6 d4be eee8 cabc
00000230: a035 373e 5607 0a3f c3a4 1ebe 5afb b0be
00000240: 6196 c5be 49b4 86bb 3291 943e 5995 033d
00000250: 13b1 ba3e 2175 bdbe bb8c ecbe 6389 56bc
00000260: aad9 8c3e 5f64 e53e 5ef6 7cbd 72e6 15bd
00000270: c8d4 7e3e 8634 803e fefd f2be eb50 68be
00000280: a356 aa3e 0a81 0abe a7dd e0be e316 a6be
00000290: a883 80be 39ed 003d d105 bcbc 86df b3be
000002a0: e3f7 ef3e 254e 9bbb 78e7 cc3e 766f 0cbe
000002b0: 698b 983e 55c3 4d3e f2ce 0cbf 36bd b03e
000002c0: e694 aa3e 6d7b c0be 3920 c83e 05ae bcbd
000002d0: f2e3 27be 9d4b 24be 362f 94be ba9e b93e
000002e0: 6370 18be f210 4bbe 59dc de3e 4516 d1be
000002f0: 5680 8dbe 140d 293d 3513 c03e 5315 4fbe
00000300: 011f a3be 2b5b 86be 3a56 853e e535 d23c
00000310: 0bf0 a0be bec7 bfbd f364 41be 34dd 603e
00000320: 48e9 a3be 6bb8 163e 409a 9e3e aa90 943e
00000330: 9ade ccbe adeb 573e 7f83 d93e 7920 9a3e
00000340: be3d 773e cc19 17be 8886 b1be cab8 64be
00000350: 4a52 54be 09b9 35be c6b1 673e 8721 cd3e
00000360: 645b 673e 8c58 0abe 7b10 c23c 3753 89be
00000370: b5dc 16be 615f 32be f44e f53d 2924 c03b
00000380: 4685 473e 3bcd eb3d 5302 8e3e 1f49 4b3d
00000390: c1bc babe c1c0 07be 357b 2c3e ce2c adbe
000003a0: 7fda f5bc ab95 b13e a6ec c2be 89cf 403e
000003b0: 405a cebe 225c 663e 6af6 123e bd43 283e
-0.15347613 0.22115123 -0.15633513 0.26601303 0.24062967 0.024812922 -0.48715088 -0.37518242
-0.077362485 0.21386015 0.4112325 0.24490105 0.097053766 -0.097151734 0.016864043 -0.13299134
-0.13088895 0.30378094 -0.40861103 -0.2612174 -0.2499938 -0.34265006 -0.30727655 0.20049234
0.2481391 0.23478962 -0.29786485 0.08818585 0.21674816 0.09594451 -0.264133 -0.32365647
0.30226788 0.019120473 0.064886086 -0.32692924 -0.48491463 0.42082614 -0.0986854 0.34065557
-0.543217 -0.3531415 -0.37036547 0.38041222 0.18477778 0.18489483 0.3152286 0.018703362
0.11742359 -0.20906965 0.050419495 0.32498792 -0.050114848 -0.32083428 -0.28496858 0.025382947
0.25804508 -0.005338827 -0.218451 0.029357998 -0.10806566 -0.041368995 0.3062788 -0.35479745
-0.13759665 -0.20313816 0.39092696 -0.35287634 -0.1276287 -0.51785296 -0.3040802 -0.17374243
0.16816723 -0.3313482 -0.044032373 -0.30164367 0.30378404 -0.3730525 -0.5320334 -0.06037562
-0.31644168 -0.33819896 0.026749423 -0.3463063 -0.2633908 0.34546414 0.31296209 0.29997963
0.35909158 0.3755808 0.09623929 -0.18991214 -0.12621158 0.04543087 0.03739092 -0.27096677
0.33956215 -0.2167164 0.30649176 -0.0013934809 0.16930485 0.058456156 0.3030173 -0.27506474
0.16410136 -0.24541374 0.15561879 -0.18495513 0.07776607 -0.30628702 -0.29781508 0.31919983
0.3541238 -0.4844054 -0.38441786 -0.37670654 0.073687755 -0.17017817 -0.010558031 0.12754034
0.03207351 -0.09045556 0.054645132 -0.3476 0.32075825 -0.38838392 -0.47612876 -0.09776022
-0.295835 0.12772486 0.2840023 -0.1495007 -0.07601479 -0.31918037 0.1682029 -0.3150502
0.32083827 0.080582894 -0.41593954 -0.024769273 0.1789155 0.53917444 -0.15492539 -0.34566766
-0.38591293 -0.004110847 0.29017025 0.03212485 0.36463222 -0.37003425 -0.4620112 -0.013094279
0.27509815 0.4480314 -0.06175839 -0.036596723 0.24885857 0.25040072 -0.47459406 -0.22687118
0.33269224 -0.13525787 -0.43919107 -0.32439336 -0.25100446 0.031476233 -0.022951992 -0.35131472
0.4686881 -0.00473954 0.40020347 -0.13714394 0.29793862 0.20094045 -0.55003273 0.34519356
0.33316725 -0.37594166 0.39087084 -0.09212879 -0.16395548 -0.16044469 -0.2894227 0.3625391
-0.14886622 -0.19830683 0.43527487 -0.40837303 -0.27636975 0.041272238 0.37514654 -0.20222978
-0.31859592 -0.2624143 0.26042348 0.025660465 -0.31433138 -0.0936427 -0.18886165 0.21959382
-0.32013917 0.14718787 0.30977058 0.2901662 -0.40013582 0.21085997 0.42483136 0.301029
0.24144647 -0.14755934 -0.34672952 -0.22336116 -0.20734516 -0.17746367 0.22626409 0.40064642
0.22593457 -0.1351034 0.0236895 -0.268213 -0.1473263 -0.17419197 0.1197795 0.0058636856
0.19484434 0.11513754 0.27736148 0.04963028 -0.36472133 -0.13257124 0.16843875 -0.33823246
-0.030011414 0.346845 -0.38071173 0.18829168 -0.4030323 0.22496083 0.14351812 0.1643209

fc2.bias f4 [10]
00000000: 4841 553d 5f67 113d 3eb7 9a3c 0126 24bd
00000010: 8887 ffbc d4a1 a83c 4e96 d1bc 125d 0f3d
00000020: 5444 b1ba 66dd 2bbd
0.05206421 0.035498973 0.018886205 -0.040075306 -0.031192556 0.020584978 -0.025584366 0.03500087
-0.0013524392 -0.04195919
