test_model.pth (torch, 87330 bytes, 16 tensors)

conv1.weight f4 [8, 1, 3, 3]
0.2548462 0.2766693 -0.07809082 0.30620375 -0.073034525 0.06726357 -0.16228501 0.19576088
0.29384765 -0.24454272 0.28973207 0.062386423 0.24626961 0.045143515 0.16072938 -0.04706368
0.25696197 0.049269646 -0.1556133 0.08496609 -0.15357888 -0.03909096 -0.13538611 0.22112367
-0.2631234 -0.15367012 -0.09412491 -0.20042416 0.03146103 -0.32922637 0.3010364 -0.2831561
0.2573425 0.05547306 -0.10823485 0.20598331 0.051950246 0.2693211 0.036439896 -0.1051244
0.089561224 -0.090393156 0.14028585 0.2976074 0.19268653 -0.14572418 0.19242159 0.059642076
0.16927835 -0.20316836 -0.3299695 -0.12878685 -0.2556743 0.273513 0.09601045 0.13807118
0.10542038 -0.0057986677 0.2608694 -0.23683786 0.020987898 -0.2275134 0.10278401 -0.114794105
0.10213876 -0.06944716 0.27646396 -0.19756731 -0.19879934 -0.19881134 0.29981425 0.111083716
00000000: 337b 823e 99a7 8d3e 14ee 9fbd bdc6 9c3e
00000010: 2093 95bd 7cc1 893d 0b2e 26be 8a75 483e
00000020: 3373 963e 6869 7abe c357 943e e888 7f3d
00000030: 1a2e 7c3e 68e8 383d 3e96 243e d8c5 40bd
00000040: 8590 833e f8ce 493d 1859 1fbe b402 ae3d
00000050: c843 1dbe d81d 20bd a8a2 0abe 3e6e 623e
00000060: 1cb8 86be b35b 1dbe 90c4 c0bd fe3b 4dbe
00000070: 48dd 003d 5c90 a8be 7121 9a3e d6f9 90be
00000080: 65c2 833e b837 633d 3caa ddbd 4aed 523e
00000090: c8c9 543d 75e4 893e 0042 153d 764b d7bd
000000a0: e06b b73d 0c20 b9bd 18a7 0f3e ff5f 983e
000000b0: 9e4f 453e b838 15be 2a0a 453e 404b 743d
000000c0: 4e57 2d3e 5e0b 50be c3f1 a8be b3e0 03be
000000d0: bee7 82be e509 8c3e 20a1 c43d 8862 0d3e
000000e0: a4e6 d73d c002 bebb ad90 853e a085 72be
000000f0: d0ee ab3c 46f9 68be 6c80 d23d 2c19 ebbd
00000100: 202e d13d 503a 8ebd af8c 8d3e 164f 4abe
00000110: 0e92 4bbe 3395 4bbe 4181 993e dc7f e33d

conv1.bias f4 [8]
0.32075027 -0.2750921 -0.33062539 -0.26078793 -0.2242297 0.13501337 0.11935863 0.27697483
00000000: 6139 a43e dfd8 8cbe bb47 a9be ff85 85be
00000010: 789c 65be f240 0a3e 4c72 f43d a5cf 8d3e

bn1.weight f4 [8]
1.0 1.0 1.0 1.0 1.0 1.0 1.0 1.0
00000000: 0000 803f 0000 803f 0000 803f 0000 803f
00000010: 0000 803f 0000 803f 0000 803f 0000 803f

bn1.bias f4 [8]
0.0 0.0 0.0 0.0 0.0 0.0 0.0 0.0
00000000: 0000 0000 0000 0000 0000 0000 0000 0000
00000010: 0000 0000 0000 0000 0000 0000 0000 0000

bn1.running_mean f4 [8]
0.029421626 -0.028914934 -0.03099407 -0.02653805 -0.0241356 0.014279916 0.011441933 0.027748132
00000000: 9f05 f13c 03df ecbc 47e7 fdbc 5366 d9bc
00000010: 06b8 c5bc 4ff6 693c f276 3b3c 0d50 e33c

bn1.running_var f4 [8]
0.9376477 0.9291846 0.9220031 0.94282717 0.9239277 0.93910056 0.92254883 0.9333781
00000000: ae09 703f 0bdf 6d3f 6508 6c3f 1f5d 713f
00000010: 8786 6c3f e568 703f 292c 6c3f def1 6e3f

conv2.weight f4 [16, 8, 3, 3]
-0.060861316 -0.080340505 0.06252923 -0.047635958 0.071526654 -0.02796615 0.06741626 -0.091566555
-0.059473544 0.03593003 0.024914615 -0.030047178 0.070247464 0.08011628 -0.085462496 -0.06291697
0.10791179 -0.039766803 -0.04178016 -0.11403212 -0.06748983 0.02943965 -0.015555546 -0.085546486
0.0027643964 -0.08050193 -0.099984504 -0.06489621 -0.103144735 -0.075040296 0.11780504 0.022259124
0.03631697 -0.1099179 -0.07740153 -0.039227434 0.018428512 -0.10369972 -0.050778873 -0.070553765
0.0003265962 -0.043852784 -0.008166581 -0.07985943 -0.08089244 -0.06875456 -0.04034014 -0.093017645
0.098814614 -0.023389213 0.10139873 0.0367203 -0.09979598 0.08155713 -0.032426126 -0.04517541
-0.097824745 -0.11716296 0.03371846 -0.025743857 0.045882173 -0.09671611 0.08749611 -0.086509064
-0.020349748 0.024615534 0.060840853 0.09514243 0.107357584 -0.09344677 0.029659279 -0.05069083
-0.012914695 -0.088210404 0.10734572 -0.0864969 0.06298568 0.041417547 0.038296424 -0.06371577
0.10712097 0.025897838 0.015160374 -0.10385688 0.049472548 -0.017680094 -0.05399046 0.10122783
0.026274763 -0.06520425 -0.059649043 -0.0056280643 0.065803505 -0.030114949 -0.06724289 -0.040357277
-0.088043615 0.042029537 0.09122152 -0.11094981 0.027371012 0.06088092 0.021369867 -0.041969694
0.061511464 0.061932318 0.044067748 -0.020708963 -0.03120713 0.01260782 -0.02081889 -0.035119765
0.07533125 0.1012812 -0.011666954 -0.0263865 0.0017197207 -0.007036686 0.028332748 0.033025853
-0.10703909 -0.043491513 0.09924591 0.0459095 -0.0058616325 -0.071053125 -0.07210192 -0.105567135
-0.038415037 0.03979882 0.07514443 0.054411553 -0.1041738 -0.07087125 -0.01859887 0.11400323
0.017048053 -0.030519992 0.048756815 -0.04488732 -0.07627981 0.08601803 -0.053587116 -0.023625232
-0.117238805 0.0788743 0.08928809 0.042950638 -0.082174554 -0.11631198 -0.09571621 0.08788162
0.056581013 0.09917226 0.061738662 0.0298272 -0.00115408 -0.0896265 -0.10097157 -0.11023189
0.04824377 -0.057861134 -0.023717843 -0.06782395 -0.021475255 -0.08294774 -0.077005774 0.03909249
-0.035024934 0.0727546 -0.037807673 -0.086451724 -0.020793527 -0.05712803 -0.036055565 -0.112193756
0.06593663 -0.08204849 0.05923406 0.05347898 0.08419671 -0.090397954 0.084758155 -0.055714313
0.043730922 0.11067573 -0.016620763 -0.0009113997 -0.027132936 -0.09840387 0.056557097 -0.11699292
0.07316197 0.08817918 0.11145257 -0.027798668 -0.096831426 0.026496507 0.06510418 -0.11729826
-0.026750281 -0.07064651 -0.010307699 -0.058007915 -0.04817372 -0.03741289 -0.1119944 0.09669774
0.09879828 -0.018487193 -0.013421133 -0.048097394 -0.10642698 -0.11468617 0.04380036 -0.064705715
-0.07576378 -0.009195119 -0.03924574 -0.03812729 0.003786698 -0.024997689 -0.040577613 -0.056427818
-0.095910475 0.098819025 -0.047162503 0.031228133 -0.04089032 0.00957673 0.10987266 0.054296695
-0.10212975 0.046775438 0.11186934 0.031004675 0.079010315 0.11618795 -0.01805821 0.024460532
-0.08191067 -0.02428642 0.08727864 0.060415886 -0.0745749 -0.09450305 -0.08053518 -0.11630465
-0.09093852 -0.02914428 0.07953503 0.01972618 -0.08963821 -0.094542995 0.058628015 -0.08766253
00000000: b749 79bd 9089 a4bd 530f 803d ec1d 43bd
00000010: 917c 923d 4419 e5bc 8911 8a3d 3f87 bbbd
00000020: 889a 73bd 5e2b 133d bc19 cc3c 8025 f6bc
00000030: e7dd 8f3d 0114 a43d f606 afbd 9dda 80bd
00000040: db00 dd3d 84e2 22bd ac21 2bbd ac89 e9bd
00000050: 1c38 8abd 6c2b f13c b0dc 7ebc ff32 afbd
00000060: e02a 353b 32de a4bd adc4 ccbd 4ee8 84bd
00000070: 8c3d d3bd baae 99bd c543 f13d c458 b63c
00000080: 1ac1 143d a31c e1bd b284 9ebd f2ac 20bd
00000090: 64f7 963c 8560 d4bd 82fd 4fbd 7e7e 90bd
000000a0: 003b ab39 fa9e 33bd 20cd 05bc 578d a3bd
000000b0: f0aa a5bd 31cf 8cbd b43b 25bd 0980 bebd
000000c0: 515f ca3d bc9a bfbc 23aa cf3d 0668 163d
000000d0: d661 ccbd 6d07 a73d 42d1 04bd da09 39bd
000000e0: 5758 c8bd 22f3 efbd 5e1c 0a3d c8e4 d2bc
000000f0: f2ee 3b3d 1913 c6bd 2931 b33d aa2b b1bd
00000100: 84b4 a6bc 84a6 c93c 4234 793d 09da c23d
00000110: 4bde db3d 0561 bfbd 04f8 f23c 30a1 4fbd
00000120: 2898 53bc a8a7 b4bd 13d8 db3d 4925 b1bd
00000130: a3fe 803d 72a5 293d b6dc 1c3d 6a7d 82bd
00000140: 3d62 db3d b427 d43c 3863 783c eab2 d4bd
00000150: baa3 4a3d d8d5 90bc 1a25 5dbd 8950 cf3d
00000160: 2c3e d73c ce89 85bd 8e52 74bd a06b b8bb
00000170: fdc3 863d a0b3 f6bc a4b6 89bd ac4d 25bd
00000180: 3650 b4bd 2a27 2c3d 59d2 ba3d a739 e3bd
00000190: 2c39 e03c 465e 793d dc0f af3c 6ae8 2bbd
000001a0: 72f3 7b3d beac 7d3d 6280 343d d8a5 a9bc
000001b0: 18a6 ffbc 0891 4e3c 608c aabc bed9 0fbd
000001c0: 4547 9a3d 856c cf3d c026 3fbc 8028 d8bc
000001d0: 4068 e13a 0094 e6bb 141a e83c 1e46 073d
000001e0: 4f37 dbbd 2824 32bd 7141 cb3d 9a0b 3c3d
000001f0: f012 c0bb 4d84 91bd 2caa 93bd 9533 d8bd
00000200: 1659 1dbd 1604 233d 53e5 993d a6de 5e3d
00000210: 1359 d5bd f224 91bd a85c 98bc 877a e93d
00000220: 5ca8 8b3c 1005 fabc 3ab5 473d c4db 37bd
00000230: 9738 9cbd 392a b03d 2a7e 5bbd b489 c1bc
00000240: e61a f0bd d988 a13d addc b63d 02ed 2f3d
00000250: 224b a8bd fa34 eebd dc06 c4bd 47fb b33d
00000260: 7ec1 673d d31a cb3d aee1 7c3d 2c58 f43c
00000270: 8044 97ba 198e b7bd 2fca cebd 42c1 e1bd
00000280: 429b 453d ccff 6cbd ec4b c2bc 48e7 8abd
00000290: e0ec afbc 81e0 a9bd 34b5 9dbd 721f 203d
000002a0: 4e76 0fbd 5d00 953d 38dc 1abd 9a0d b1bd
000002b0: 3057 aabc 15ff 69bd 00af 13bd d7c5 e5bd
000002c0: c909 873d 0a09 a8bd 6a9f 723d c60c 5b3d
000002d0: 536f ac3d 9022 b9bd af95 ad3d b134 64bd
000002e0: 321f 333d f5a9 e23d 4428 88bc 00eb 6eba
000002f0: e445 debc f887 c9bd 6aa8 673d fc99 efbd
00000300: f1d5 953d 4997 b43d 3f41 e43d 08ba e3bc
00000310: 8e4f c6bd 340f d93c 5755 853d 123a f0bd
00000320: 6823 dbbc 1eaf 90bd a0e1 28bc b599 6dbd
00000330: ce51 45bd 423e 19bd 525d e5bd 7709 c63d
00000340: c156 ca3d 7472 97bc 50e4 5bbc c601 45bd
00000350: 63f6 d9bd 95e0 eabd 0268 333d 6e84 84bd
00000360: 0a2a 9bbd 20a7 16bc 24c0 20bd 5c2b 1cbd
00000370: 402a 783b f4c7 ccbc b634 26bd db20 67bd
00000380: b66c c4bd a161 ca3d 782d 41bd 24d2 ff3c
00000390: 9c7c 27bd b8e7 1c3c eb04 e13d 3666 5e3d
000003a0: 6729 d1bd 9a97 3f3d c11b e53d 84fd fd3c
000003b0: 29d0 a13d f3f3 ed3d d0ee 93bc 7461 c83c
000003c0: c8c0 a7bd 50f4 c6bc 25bf b23d a676 773d
000003d0: baba 98bd d18a c1bd a1ef a4bd 2231 eebd
000003e0: fa3d babd fcbf eebc 43e3 a23d cc98 a13c
000003f0: 3d94 b7bd c29f c1bd ee23 703d 6a88 b3bd

conv2.bias f4 [16]
0.032045938 0.038732164 0.089726605 -0.050656646 -0.02651003 0.032138698 0.012841187 0.09503252
-0.061899953 -0.004291743 0.022020854 -0.031299964 0.08034108 0.012890734 -0.10892155 -0.012767501
00000000: 9a42 033d 9ea5 1e3d 95c2 b73d 587d 4fbd
00000010: 902b d9bc dea3 033d d863 523c 69a0 c23d
00000020: ce8a 7dbd c0a1 8cbb 1465 b43c 6434 00bd
00000030: dd89 a43d a833 533c 4312 dfbd c82e 51bc

bn2.weight f4 [16]
1.0 1.0 1.0 1.0 1.0 1.0 1.0 1.0
1.0 1.0 1.0 1.0 1.0 1.0 1.0 1.0
00000000: 0000 803f 0000 803f 0000 803f 0000 803f
00000010: 0000 803f 0000 803f 0000 803f 0000 803f
00000020: 0000 803f 0000 803f 0000 803f 0000 803f
00000030: 0000 803f 0000 803f 0000 803f 0000 803f

bn2.bias f4 [16]
0.0 0.0 0.0 0.0 0.0 0.0 0.0 0.0
0.0 0.0 0.0 0.0 0.0 0.0 0.0 0.0
00000000: 0000 0000 0000 0000 0000 0000 0000 0000
00000010: 0000 0000 0000 0000 0000 0000 0000 0000
00000020: 0000 0000 0000 0000 0000 0000 0000 0000
00000030: 0000 0000 0000 0000 0000 0000 0000 0000

bn2.running_mean f4 [16]
-0.12692669 -0.0049682297 -0.08993677 -0.07966733 -0.046657138 0.042113345 -0.002234115 -0.061005052
0.029833535 -0.029911583 0.034365553 0.021724295 -0.050080236 -0.0022673903 0.007827483 0.058442652
00000000: 12f9 01be 88cc a2bb c530 b8bd a028 a3bd
00000010: 8e1b 3fbd 0b7f 2c3d 3b6a 12bb 6fe0 79bd
00000020: 7565 f43c 2309 f5bc e5c2 0c3d 26f7 b13c
00000030: ef20 4dbd 7f98 14bb d83e 003c 9061 6f3d

bn2.running_var f4 [16]
0.9299159 0.90812784 0.9203908 0.91707546 0.91571134 0.9149043 0.91465825 0.9197915
0.9156567 0.9201232 0.91877884 0.9109824 0.9172366 0.91959524 0.9141633 0.92378694
00000000: f80e 6e3f 117b 683f bb9e 6b3f 75c5 6a3f
00000010: 0f6c 6a3f 2b37 6a3f 0b27 6a3f 7577 6b3f
00000020: 7a68 6a3f 328d 6b3f 1735 6b3f 2436 693f
00000030: 05d0 6a3f 986a 6b3f 9b06 6a3f 4d7d 6c3f

fc1.weight f4 [24, 784]
-0.016198462 0.0034703985 -0.0041505694 -0.03542622 -0.0065080486 -0.0034206882 -0.010531375 0.03281359
-0.0077928267 0.02294347 0.008847062 -0.030147614 0.00839236 0.029597703 -0.023360739 -0.02308482
0.034958895 0.028696787 -0.019924786 0.021490894 -0.0045690034 -0.035211764 0.0026833378 0.011539072
-0.010712888 0.012424409 -0.030539319 0.024750572 0.030447658 0.019695241 0.0060532615 0.011762463
-0.025840994 -0.00892405 -0.003409557 -0.019874506 -0.026379287 0.024022058 0.024237331 -0.032435294
0.011364713 0.014528651 0.033927444 0.020662632 0.032833453 -0.01169249 0.0250138 0.029050048
-0.033726003 -0.028668098 0.0072287656 0.01950135 -0.017743325 0.003933374 -5.184859e-05 0.0090395585
-0.019191056 0.02014425 0.023750335 -0.024780653 0.0003459789 9.909272e-05 0.011468418 0.033270877
0.010473695 -0.00811507 0.032076176 -0.013590461 -0.01037042 0.0024384037 -0.027196744 0.0038863346
-0.02423127 0.003672164 0.0034216978 0.004943598 -0.0301177 -0.03392087 0.016432762 0.030628424
-0.03169187 0.013228364 -0.026290055 0.0022389777 0.03322706 0.02709354 -0.026112135 0.022091854
0.018654186 -5.4780394e-05 0.034597386 -0.014184829 -0.008311281 -0.018050505 0.005139172 0.009456668
0.0028457232 -0.020094182 -0.016077375 0.012148306 -0.03131523 -0.005561948 -0.0007911287 -0.0144701395
0.012997076 0.0023019202 0.025073737 -0.0031718388 -0.022540659 0.025233995 0.004987456 -0.010228507
-0.023539387 0.008371033 -0.03406259 0.009406351 0.01765874 -0.03132859 -0.023381159 -0.025675923
0.030018095 0.030361455 0.0022357441 0.03352878 -0.011939429 -0.034672223 0.01247482 0.012652449
0.035013657 -1.0337681e-05 0.027371291 0.021891564 0.025848888 -0.035440434 0.029409211 -0.030444747
0.032018255 -0.0014800206 -0.031650614 0.009931885 -0.0072695278 -0.032078337 -0.012947794 0.0036823265
0.02781595 -0.010979632 0.02121314 0.0044724457 0.0012038536 0.0068337508 -0.02343817 -0.029685652
-0.011221843 -0.033280503 -0.016655378 0.0016430654 -0.02352176 -0.014814144 -0.006417373 -0.004114408
-0.019714808 0.0017161071 -0.0050128736 0.010214128 0.0016131215 -0.017834634 -0.012295855 -0.0004116334
-0.02228519 0.0027958937 -0.002521634 0.013856377 0.008452348 0.026727986 -0.001177337 -0.026389472
0.015964605 -0.024137069 -0.0049090125 -0.011564383 -0.013551589 -0.013213711 0.03281859 0.020444889
0.009897765 0.033534165 -0.032365073 0.0057631247 0.022863444 0.023724642 -0.028423348 0.01271034
-0.020345926 -0.0013954937 -0.0074525103 -0.029820163 -0.034068372 -0.023496356 0.01620609 0.016336981
-0.031062992 -0.013412224 0.000583373 -0.03087795 0.020123377 0.032347586 0.0063164905 -0.026536245
0.008328084 0.012964774 0.028280113 -0.019002497 -0.03199678 0.015691094 0.0022234395 -0.011636658
-0.014965083 -0.018414851 0.02891061 -0.0061621107 0.025757395 0.031880345 0.0045241453 0.007607773
-0.0024323128 0.024529122 -0.03218171 0.014202967 -0.0058188867 0.016307727 -0.00015907362 -0.01322379
-0.003855355 0.01928546 -0.02480464 -0.02257497 -0.007999871 -0.012954449 0.014029972 0.024034638
-0.0038249493 0.033770498 -0.014922142 -0.020041406 -0.015989074 -0.024606157 -0.025033351 -0.031821985
-0.03165283 0.00932138 0.021780502 0.03353026 0.030421335 -0.002056919 0.006930236 -0.021368563
00000000: a3b2 84bc a06f 633b 8001 88bb 161b 11bd
00000010: 7841 d5bb a02d 60bb ca8b 2cbc 8b67 063d
00000020: f85a ffbb f2f3 bb3c 44f3 103c 21f8 f6bc
00000030: 1c80 093c e276 f23c 055f bfbc 601c bdbc
00000040: 0f31 0f3d 8615 eb3c 4e39 a3bc ac0d b03c
00000050: 94b7 95bb 363a 10bd f0da 2f3b 600e 3d3c
00000060: 1c85 2fbc c08f 4b3c 982d fabc b6c1 ca3c
00000070: 5e6d f93c ea57 a13c 705a c63b 58b7 403c
00000080: 7eb0 d3bc 2e36 12bc e072 5fbb dccf a2bc
00000090: 6019 d8bc e8c9 c43c 5e8d c63c dfda 04bd
000000a0: 1033 3a3c 9409 6e3c 81f7 0a3d ae44 a93c
000000b0: 5f7c 063d dc91 3fbc bee9 cc3c 5efa ed3c
000000c0: 4724 0abd 5cd9 eabc 48df ec3b 4cc1 9f3c
000000d0: 735a 91bc 88e3 803b 0078 59b8 a81a 143c
000000e0: 9036 9dbc 8e05 a53c 1090 c23c cc00 cbbc
000000f0: 8064 b539 00d0 cf38 08e6 3b3c 0b47 083d
00000100: dc99 2b3c 12f5 04bc 4f62 033d 86aa 5ebc
00000110: b2e8 29bc a0cd 1f3b b5cb debc e0b1 7e3b
00000120: a880 c6bc b0a8 703b 903e 603b e8fd a13b
00000130: 65b9 f6bc 9cf0 0abd 009e 863c 76e8 fa3c
00000140: 56cf 01bd c8bb 583c 3e5e d7bc d0bb 123b
00000150: 1919 083d 46f3 dd3c 1ee9 d5bc faf9 b43c
00000160: aad0 983c 00c4 65b8 fdb5 0d3d 7c67 68bc
00000170: 0a2c 08bc a7de 93bc 8066 a83b 24f0 1a3c
00000180: 507f 3a3b 8e9c a4bc b3b4 83bc b009 473c
00000190: 6644 00bd 0041 b6bb c063 4fba 2a14 6dbc
000001a0: b0f1 543c d0db 163b 7067 cd3c a0de 4fbb
000001b0: 30a7 b8bc 86b7 ce3c d06d a33b 7895 27bc
000001c0: acd5 c0bc a826 093c 3785 0bbd 181d 1a3c
000001d0: 10a9 903c 6852 00bd d889 bfbc 5056 d2bc
000001e0: 82e8 f53c 96b8 f83c 9085 123b 7955 093d
000001f0: 989d 43bc 7604 0ebd 3063 4c3c 384c 4f3c
00000200: 7b6a 0f3d 0070 2db7 c239 e03c f055 b33c
00000210: 0cc1 d33c fd29 11bd 96eb f03c 4367 f9bc
00000220: 9325 033d 40fd c1ba 13a4 01bd 58b9 223c
00000230: 3835 eebb 9364 03bd fc22 54bc 3053 713b
00000240: 46de e33c eae3 33bc 2ec7 ad3c 988d 923b
00000250: a0ca 9d3a a8ed df3b 6801 c0bc 532f f3bc
00000260: d2db 37bc 2351 08bd dc70 88bc 205c d73a
00000270: b5b0 c0bc 06b7 72bc d448 d2bb 28d2 86bb
00000280: f380 a1bc 00ef e03a 0843 a4bb 2859 273c
00000290: 606f d33a f019 92bc 8e74 49bc 80d0 d7b9
000002a0: 6e8f b6bc 503b 373b 0042 25bb dc05 633c
000002b0: b87b 0a3c a6f4 da3c e050 9aba bc2e d8bc
000002c0: 34c8 823c 1abb c5bc c8db a0bb 8a78 3dbc
000002d0: 7c07 5ebc 527e 58bc c96c 063d 0a7c a73c
000002e0: 3c2a 223c 1f5b 093d 3d91 04bd 98d8 bc3b
000002f0: 1e4c bb3c 2e5a c23c 15d8 e8bc 083f 503c
00000300: 80ac a6bc 00e9 b6ba 3034 f4bb 6a49 f4bc
00000310: 478b 0bbd 6e7b c0bc a2c2 843c 22d5 853c
00000320: d177 febc f2be 5bbc 80ed 183a c1f3 fcbc
00000330: c8d9 a43c e77e 043d 90fa ce3b 8a62 d9bc
00000340: 8472 083c 346a 543c b2ab e73c 20ab 9bbc
00000350: 0e0f 03bd 9c8a 803c 20b7 113b aea7 3ebc
00000360: 1c30 75bc beda 96bc f2d5 ec3c 88eb c9bb
00000370: 2c01 d33c f794 023d 483f 943b a04a f93b
00000380: 7067 1fbb 4cf1 c83c f8d0 03bd 90b3 683c
00000390: 5cac bebb c897 853c 00cd 26b9 98a8 58bc
000003a0: 20aa 7cbb 8afc 9d3c 1a33 cbbc 25ef b8bc
000003b0: e411 03bc e63e 54bc f8dd 653c 4ae4 c43c
000003c0: 00ac 7abb ef52 0a3d 007c 74bc e02d a4bc
000003d0: 85fb 82bc da92 c9bc be12 cdbc c557 02bd
000003e0: 66a6 01bd b4b8 183c 066d b23c 0757 093d
000003f0: 2a36 f93c 60cd 06bb 0817 e33b 200d afbc

fc1.bias f4 [24]
0.016081944 0.018945973 -0.025200522 0.010993954 0.019042835 0.0072316825 -0.016753219 -0.015988683
0.019575298 0.011825852 0.009166583 -0.027283996 -0.03184606 0.02797037 0.0022234544 0.030146074
-0.034239925 -0.016723294 -0.03305444 0.033034462 0.0052558444 0.013979968 0.027310345 0.0021006651
00000000: 48be 833c 9634 9b3c 5371 cebc fc1f 343c
00000010: b8ff 9b3c c0f7 ec3b 0c3e 89bc b3fa 82bc
00000020: 605c a03c 38c1 413c 702f 163c b082 dfbc
00000030: 0471 02bd 1e22 e53c 60b7 113b e6f4 f63c
00000040: 2a3f 0cbd 4aff 88bc 1864 07bd 254f 073d
00000050: 3839 ac3b 3c0c 653c f2b9 df3c 50ab 093b

fc2.weight f4 [10, 24]
0.044012263 -0.14769745 0.022019133 0.14303377 -0.030095503 -0.14145985 -0.10556527 0.0059063733
0.13494605 0.017549366 -0.11713709 0.017183542 -0.06623502 0.011339307 0.12773848 -0.17008251
-0.05535102 -0.10729966 0.17187399 -0.1714257 -0.04771334 -0.1832144 -0.1448384 -0.08149596
0.037441164 -0.18028753 -0.020887509 -0.111348785 0.14404574 -0.13186452 -0.17163447 -0.019451126
-0.16799787 -0.07854889 0.06667289 -0.1653481 -0.08248188 0.116297394 0.15110144 0.16922003
0.17239672 0.16682684 -0.048797518 -0.09066819 -0.04508303 0.04404059 0.021086723 -0.12874825
0.1697022 -0.055741176 0.15430897 0.004522279 0.08317816 0.014636993 0.07632628 -0.12401768
0.08652109 -0.11944191 0.10310894 -0.092789575 0.05466482 -0.19388963 -0.13110521 0.17199862
0.15520418 -0.1815076 -0.12596355 -0.18702437 0.02089648 -0.054920167 -0.0022122115 0.06489143
0.056742817 -0.03260885 0.032552183 -0.16680253 0.15670493 -0.1787825 -0.10693934 -0.06784806
-0.11910222 0.010756299 0.1027523 -0.06984675 -0.06511067 -0.11464347 0.076652884 -0.14197323
0.15009955 0.045348212 -0.15826467 -0.014621541 0.05993375 0.2029041 -0.07236229 -0.16504653
-0.10995793 0.050055623 0.1367957 0.0065601617 0.18186924 -0.14157687 -0.20290086 0.025644735
0.12835181 0.19097856 0.011829972 -0.014863685 0.1016272 0.12574545 -0.18611309 -0.100051135
0.14557081 -0.058742464 -0.16547474 -0.15206355 -0.10515467 -0.021817848 -0.014070794 -0.1678023
0.19437337 0.008749619 0.19862568 -0.072547734 0.14992672 0.060599893 -0.18496007 0.14227042
0.13155353 -0.1519025 0.16783881 -0.04184784 -0.082686774 -0.06147352 -0.14223799 0.1727584
-0.06840268 -0.12022659 0.19672039 -0.20209046 -0.1525929 0.06431988 0.18520647 -0.10118412
-0.1025351 -0.10852196 0.13217345 -0.009183809 -0.15601082 -0.090045124 -0.16481897 0.079473466
-0.101737514 0.014614135 0.13888624 0.14398459 -0.1997689 0.09887159 0.18126991 0.16107553
0.07344118 -0.009898916 -0.1190929 -0.10377211 -0.11553799 -0.058576345 0.11286256 0.19759712
0.118139446 -0.05435811 0.020109072 -0.0778968 -0.06678966 -0.0423422 -0.009021714 0.014581189
0.09392437 0.0705007 0.13973352 0.027061373 -0.16342212 0.012383491 0.08347991 -0.18143852
0.009192154 0.12670138 -0.1357485 0.09563446 -0.12502533 0.078033 0.07265532 0.08276361
-0.14071006 0.09084481 -0.14632984 -0.10275648 0.08305445 -0.14198759 0.11574593 0.105273604
0.19602197 -0.11604656 0.05453381 0.15981847 0.07547343 -0.050366417 0.17787421 0.12860212
0.055398405 -0.06495245 -0.12541749 0.1816802 0.002230525 -0.03163807 -0.0007534176 -0.10739315
0.09610146 0.047777325 0.04036759 -0.031627536 0.06897336 0.17382514 0.1086517 0.18787518
0.06281066 0.10522321 -0.06600921 -0.14216596 0.1054855 0.027364284 -0.0070829988 0.029890925
0.08324438 -0.0080741495 0.0915961 0.19728315 -0.029660895 -0.057021707 -0.09527092 0.12856859
00000000: 3446 343d 003e 17be 7861 b43c 7277 123e
00000010: d88a f6bc dada 10be 9b32 d8bd 408a c13b
00000020: 4c2f 0a3e b0c3 8f3c 92e5 efbd 80c4 8c3c
00000030: 3aa6 87bd 80c8 393c e0cd 023e 1c2a 2ebe
00000040: c0b7 62bd edbf dbbd bcff 2f3e 388a 2fbe
00000050: 106f 43bd 8e9c 3bbe 8450 14be 5be7 a6bd
00000060: e85b 193d 4b9d 38be 481c abbc d50a e4bd
00000070: ba80 133e 7e07 07be f2c0 2fbe f857 9fbc
00000080: a207 2cbe 3ede a0bd cc8b 883d 0351 29be
00000090: 43ec a8bd 542d ee3d 56ba 1a3e 0448 2d3e
000000a0: c488 303e a8d4 2a3e e8df 47bd 3eb0 b9bd
000000b0: fca8 38bd e863 343d 10be ac3c 95d6 03be
000000c0: 6ac6 2d3e dc50 64bd 2c03 1e3e a02f 943b
000000d0: 5059 aa3d 00d0 6f3c f450 9c3d fbfc fdbd
000000e0: f831 b13d f69d f4bd c82a d33d 7608 bebd
000000f0: 38e8 5f3d 018b 46be 7240 06be 6820 303e
00000100: d8ed 1e3e 21dd 39be 97fc 00be 5183 3fbe
00000110: 182f ab3c f8f3 60bd c0fa 10bb cce5 843d
00000120: 286b 683d dc90 05bd 7055 053d 48ce 2abe
00000130: 4277 203e c212 37be 0303 dbbd ecf3 8abd
00000140: ddeb f3bd 303b 303c cc6f d23d d00b 8fbd
00000150: be58 85bd 32ca eabd 30fc 9c3d 6e61 11be
00000160: b2b3 193e 0cbf 393d 2210 22be 308f 6fbc
00000170: 187d 753d 18c6 4f3e ae32 94bd f501 29be
00000180: a031 e1bd 2007 4d3d 2c14 0c3e a0f6 d63b
00000190: ee3b 3a3e 87f9 10be 3ec5 4fbe e814 d23c
000001a0: a86e 033e e28f 433e 80d2 413c d086 73bc
000001b0: ec21 d03d 6ac3 003e 6e94 3ebe 9ce7 ccbd
000001c0: 8410 153e f09b 70bd 3672 29be 8cb6 1bbe
000001d0: 555b d7bd 58bb b2bc 3089 66bc 5ed4 2bbe
000001e0: d009 473e 905a 0f3c 8864 4b3e e893 94bd
000001f0: 6486 193e 9837 783d 2c66 3dbe 56af 113e
00000200: f8b5 063e 548c 1bbe f0dd 2b3e a468 2bbd
00000210: af57 a9bd a8cb 7bbd d6a6 11be 94e7 303e
00000220: b416 8cbd 5c39 f6bd 1271 493e cdf0 4ebe
00000230: 5041 1cbe 24ba 833d c4a6 3d3e 9f39 cfbd
00000240: ecfd d1bd c340 debd 7a58 073e b077 16bc
00000250: 4dc1 1fbe 9469 b8bd 4ec6 28be fcc2 a23d
00000260: c25b d0bd 2070 6f3c 3238 0e3e b270 133e
00000270: 3890 4cbe 307d ca3d d29e 393e fcf0 243e
00000280: 5468 963d 102f 22bc fae6 f3bd 7986 d4bd
00000290: 2f9f ecbd c0ed 6fbd 7c24 e73d e656 4a3e
000002a0: 18f3 f13d 9ca6 5ebd c8bb a43c 5c88 9fbd
000002b0: 04c9 88bd 046f 2dbd d0cf 13bc f0e5 6e3c
000002c0: 6c5b c03d ac62 903d 4e16 0f3e d0af dd3c
000002d0: 2158 27be 20e4 4a3c 84f7 aa3d 05cb 39be
000002e0: b09a 163c 02be 013e a801 0bbe 00dc c33d
000002f0: a406 00be c4cf 9f3d 50cc 943d f87f a93d
00000300: 4c16 10be d80c ba3d 7dd7 15be fd71 d2bd
00000310: 7418 aa3d 3265 11be 340c ed3d b099 d73d
00000320: fcb9 483e d2a9 edbd d85e 5f3d 74a7 233e
00000330: d091 9a3d 044d 4ebd a824 363e 46b0 033e
00000340: 70e9 623d ca05 85bd 716d 00be 600a 3a3e
00000350: 002e 123b ec96 01bd 0081 45ba f1f0 dbbd
00000360: d8d0 c43d 28b2 433d 7c58 253d e08b 01bd
00000370: e841 8d3d 38ff 313e c884 de3d 5a62 403e
00000380: e0a2 803d 447f d73d d62f 87bd f493 11be
00000390: c808 d83d 102b e03c 8018 e8bb d0dd f43c
000003a0: 087c aa3d 7049 04bc bc96 bb3d 9804 4a3e
000003b0: 68fb f2bc 988f 69bd 661d c3bd 7ca7 033e

fc2.bias f4 [10]
-0.05630435 0.046738774 -0.14008933 0.063170135 -0.15416333 0.032294974 -0.11927073 -0.18686098
0.010853097 0.06540862
00000000: 649f 66bd 2871 3f3d 9473 0fbe 585f 813d
00000010: fedc 1dbe bc47 043d 3644 f4bd 7c58 3fbe
00000020: 30d1 313c f4f4 853d
